model.pth (torch, 20980 bytes, 6 tensors)

layer1.weight f4 [32, 94]
00000000: 8eb0 c8bd 010e 283d f7dc 1bbe f752 b43e
00000010: 805f 6ebe 1554 223e 553d 7229 f05e d8bd
00000020: c707 2e3e f926 223e ed91 4b3c f32f 023e
00000030: a46c 703d bf20 4dbd 94a8 5d3e ff73 2d3e
00000040: f6c9 483e c420 a8bc 0c20 10be 48d4 123e
00000050: b481 163e 02a4 e0bd e88c de3d 8d06 ec3d
00000060: 710b d5bd 0bff fbbc 548f 0a2b 7864 24bd
00000070: 4b17 323e 5457 52be 6fd9 22be 3fc7 543d
00000080: 73fc 24be e68d cbbd 81d0 20be 78b6 25be
00000090: 3d72 2c3e 798f 813c 1c38 2bbe ae1a 143e
000000a0: 0400 1ebe 288c ba3c acb2 653e 20e8 993d
000000b0: f523 76bd 81da 8ebc 6d83 c33d 0da0 bc3e
000000c0: 2781 c4bc 453f debb 246d 143e 0e6f d53d
000000d0: 9082 d1bc 906e b73e e074 033e f03f 303e
000000e0: 538e ab3e 0481 9abc 264b e13d 47fb d8bd
000000f0: 3876 2a3e 12b8 03ab eed5 363e 1a69 1eab
00000100: 4304 4b3e cb02 df3d 78c0 ef3d 4745 cfbc
00000110: fb34 c13d 81e5 4fbd e0c7 c93d 79b5 f53d
00000120: 1a83 5f3e 10db ea3d 7acb 46be 5e07 eabd
00000130: ef45 b8bc 8aaf 6f3e 4419 c33e 1a20 3ebd
00000140: 8fc6 843e c9ec dd3d 6c7f d63d d6a5 94be
00000150: 75a8 26be c5ff 853e e909 2cbe 6edd 01bd
00000160: 1e13 f33d 8a1b b73e 7386 313e 542a 4a3e
00000170: e97a e53c 3093 b4a7 01db c1bd 0282 8d3d
00000180: a123 b2bd b6ee 843e 806e 23be eb0e cf3d
00000190: 5351 2eab 62c1 f0bd efbb 2bbd 0c54 d33d
000001a0: d2b3 1b3c 7262 68bd 6abe 96bc b188 23bd
000001b0: 6d52 d53d 74af c9bd 9f86 453d 9ceb 823e
000001c0: d487 df3e a0e8 74bd e08f f93d 9bc6 11bd
000001d0: 0245 09be 6888 2bbd 4297 223e c073 373e
000001e0: c2d3 5029 197b 02bd d1fc e83d cd50 19be
000001f0: 8488 513e 26db 02bd 5509 903e 6396 36be
00000200: 941b a23e df15 b93e 5ce4 16be 2710 95bc
00000210: d556 8c3e 4c84 20bd a954 dcbd 85e5 40bc
00000220: 6417 cbbc 368b fabc 4914 c2bd 3877 be3b
00000230: a488 d3bd 57ae 6c3e ba3f f5bc 9518 52bc
00000240: d884 c2bc 8c4b 303e b33f 13bc 24f0 893e
00000250: 17cc 8d3a fcc6 eabd 61c2 8f3d a6ba 2a3e
00000260: ebcb 31bd 4004 0cbe 7460 cdbd 1f6b 89bc
00000270: c9a5 523e 96b8 a229 2f1a c8bd 09ba e0bd
00000280: 8ec4 a1bd 33d9 15bd 6bda f23c 63be afbd
00000290: facb bfbd 0bd8 92bc 83a2 913d 324e 4fbe
000002a0: 7440 5cbe 2063 18be 5b49 833e fe9b 823e
000002b0: 2cd4 a2be 9b03 83bd ea41 b83c 8462 303e
000002c0: 4bef 21bd a639 573e ead8 78bd 3991 95be
000002d0: ad2b 5ebd 5c29 153e c17f f03d b953 763e
000002e0: d318 883e fac5 e4bd 4516 3a3c df35 f2b9
000002f0: 1b1b 08bd c3ad 4e3e 2ac5 97bd 8ce1 abbd
00000300: 9b42 2bbe 61fd 1dbe fbcc 10a9 1096 12be
00000310: 8520 e0bd 5a0d 13be 5f25 0f3e ac91 84bd
00000320: 3deb 4a3b a225 b9bc 8592 32bd 402e 1f3e
00000330: 619e 52bd f238 673e 52c0 c13e e8c1 b8bc
00000340: e86d ea39 50ec d7bd a9eb 333d efd3 3fbd
00000350: 385d 803d b3bf ed3d abdd a12a eb92 b8bc
00000360: 5d15 afbc e64f bcbc 756c 873e 52de 452a
00000370: 3765 983e c9b4 7ebe baed 8d3e 54f8 c03e
00000380: fb71 c63d 869a 513e e930 973e 936b 62be
00000390: 0bbe 22be 9090 0e3e 3a99 a9bc 7887 2ebc
000003a0: 1751 a6bd ee55 b73b ec5c 0e3e 1431 fabd
000003b0: 9615 6dbd 6c17 adbd 97de d53c 4c96 5c3e
000003c0: a2a0 9c3c bb9d 4bbe b971 16ab b818 40bd
000003d0: 2e89 94bd cb5b fe3d 8057 3cbd 17dc 1cbe
000003e0: a990 323e 9a87 a4bc 5da7 f6bd a697 ca27
000003f0: eb50 c43d ed77 963d 6889 1cbc 038e 39bd
-0.097993 0.04102898 -0.1522101 0.35219547 -0.23278618 0.15852387 5.378799e-14 -0.10564983
0.16995154 0.1583518 0.012424928 0.12713604 0.058697358 -0.050080057 0.21646339 0.1693878
0.19608292 -0.020523436 -0.14074725 0.14338791 0.14697915 -0.10968782 0.108667195 0.11524687
-0.10402573 -0.030761262 4.9226356e-13 -0.040134877 0.17391698 -0.20541126 -0.15903257 0.05194783
-0.16111927 -0.09939174 -0.15704538 -0.16182888 0.16840453 0.015815483 -0.16720623 0.14463302
-0.15429693 0.02277191 0.22431439 0.075149775 -0.060092885 -0.017438175 0.09546552 0.3684086
-0.023987366 -0.0067824447 0.14494759 0.104215726 -0.025574952 0.3582654 0.12837553 0.1721189
0.33507022 -0.018860348 0.110006616 -0.10594802 0.1664666 -4.6796e-13 0.17855045 -5.6278734e-13
0.19825844 0.108892046 0.117066324 -0.025301589 0.09433933 -0.05075598 0.09852576 0.11997504
0.21827355 0.11467564 -0.19413558 -0.114271864 -0.022494284 0.23406807 0.38105214 -0.046417333
0.25932738 0.10836179 0.104735225 -0.29032773 -0.16275199 0.261717 -0.16800655 -0.031705312
0.11868881 0.35763198 0.17336445 0.1974271 0.02801271 -5.0119617e-15 -0.094656 0.06909563
-0.08698202 0.25963372 -0.15960121 0.10110267 -6.193008e-13 -0.11755635 -0.041927274 0.10318765
0.009503322 -0.05673451 -0.018401343 -0.03992528 0.10416112 -0.09847918 0.048224088 0.2557038
0.43658316 -0.05979216 0.12185645 -0.035589796 -0.1340523 -0.041878134 0.15878013 0.17915249
4.636895e-14 -0.031855676 0.11376346 -0.1497223 0.20462233 -0.031947277 0.2813212 -0.17830805
0.31661665 0.361495 -0.1473555 -0.018196179 0.27409998 -0.039188668 -0.10758335 -0.011773472
-0.024791427 -0.03058396 -0.09476525 0.005812552 -0.103287965 0.2311338 -0.029937614 -0.012823244
-0.023744985 0.17216319 -0.008987355 0.26941025 0.001081827 -0.114637345 0.07019497 0.16672763
-0.043407362 -0.13673496 -0.100281626 -0.016774712 0.20571055 7.226266e-14 -0.09770619 -0.109729834
-0.07898818 -0.03658409 0.029645165 -0.08581235 -0.09365077 -0.017925283 0.07111075 -0.20244673
-0.21508962 -0.14881563 0.25641903 0.25509638 -0.318025 -0.06397172 0.022492368 0.1722508
-0.03953485 0.21018085 -0.06075374 -0.2921236 -0.05424087 0.14566559 0.11743117 0.24055375
0.2658144 -0.111705735 0.0113578485 -0.00046197974 -0.033228975 0.20183472 -0.07410653 -0.08392629
-0.16724627 -0.15428688 -3.2152215e-14 -0.14315057 -0.109437026 -0.14360562 0.139791 -0.06473097
0.0030962967 -0.022600953 -0.043596763 0.15544987 -0.051420573 0.22580317 0.3784204 -0.0225534
0.00044713845 -0.1054312 0.043925915 -0.046832975 0.0626778 0.11608829 2.8753158e-13 -0.022530993
-0.021372491 -0.022987317 0.26449934 1.7574248e-13 0.2976472 -0.24873652 0.27720433 0.3768946
0.09689709 0.20469102 0.29529503 -0.22111349 -0.15892808 0.13922334 -0.020702947 -0.010652415
-0.081209354 0.0055949604 0.13902634 -0.12216392 -0.057881914 -0.08451733 0.026107116 0.21541709
0.019119564 -0.19884388 -5.3448527e-13 -0.046898574 -0.072527274 0.12419852 -0.045981884 -0.15318333
0.17437996 -0.020084191 -0.12043641 5.623068e-15 0.095857464 0.07347093 -0.009554245 -0.04530145

layer1.bias f4 [32]
00000000: c9b3 2e3e 8e9e 513e 701c 4c3e e471 db3d
00000010: f680 603e f9a4 ab3d 2dac ae3d 7a14 ca3e
00000020: 7120 b33d bc09 7c3e ac19 5c3e 583c 1f3e
00000030: 8973 133e c192 793e 0ae2 283e ef2a 253e
00000040: e0b2 d33e 5879 e63d 8e08 b53e 4efe 783e
00000050: 62dc 0a3e af79 643e 043f 933e ad9b 9f3e
00000060: a68b 3a3b e98b d03e 4f81 1a3e 3c23 dc3d
00000070: b498 b13e afac 323e 51cd bf3e 7090 da3d
0.1706077 0.2047064 0.19932723 0.10715082 0.21924195 0.083810754 0.08528934 0.39468747
0.08746422 0.24613088 0.21494168 0.15550363 0.14399542 0.24372388 0.16492477 0.16129659
0.41347408 0.11253613 0.3535809 0.2431576 0.13560632 0.22312044 0.28759015 0.3117346
0.0028464585 0.40731743 0.1508839 0.10748908 0.34686816 0.17448686 0.3746133 0.106720805

layer2.weight f4 [32, 32]
00000000: 196d 1a3f 5d13 5cbd 7c3d 283d 1cb8 c73e
00000010: e912 b53d eb45 b13e 2d89 d53e 6056 6abe
00000020: 7278 c8bd d467 883e 21c2 ba3e 124f 313f
00000030: dfc4 94be 84e5 863d 39a6 a03e 617e 7b3b
00000040: c136 e53d 6b15 09be 44c4 803d 9a35 5d3e
00000050: ba6e dfbe c935 4b3e 0a4a 90bd 0097 613e
00000060: 21ab c8bc 4008 a93c 5199 71bb 213a 49be
00000070: 45a8 95bd ef34 443e f3a0 383d c23b b43e
00000080: 694e 613e b90f 513d 9c79 57be c53a 473d
00000090: dc94 073d 8c80 03be 71f1 963e 8b5e e9bd
000000a0: 4fe5 09bd 7779 483b 5145 593d e5cd 7f3e
000000b0: 673a de3c c1c9 d53d 5a7c 31bd c907 bc3e
000000c0: 74f6 82be 3cd5 b4be f882 6abe c4f4 853e
000000d0: fd6d 4cbc d503 8c3e bea4 6ebe 2034 a13e
000000e0: 0cdc aebd bf98 003f 574f be3d d353 9e3d
000000f0: f0f6 d5be 6b38 543e 2bab 9ebc db29 3a3e
00000100: c616 c0bb 508a 82be ddc6 ccbe b638 97bd
00000110: dd77 8dbe 47dc 8a3d 60a9 2bbc ac72 d83e
00000120: 8f8e 58be 9040 e43e beaa f83d 7fa7 d23d
00000130: 9e22 473e c083 5dbe c540 003f d6b9 1d3f
00000140: c89e 9bbd 8d71 69be b820 743d 724c c83e
00000150: 498b 8f3d 619c cc3e 3a26 d93e 1168 833e
00000160: 1570 173e 2f2d 7b3c 3799 d03e 78cd 093f
00000170: f56e 07be f5f1 623e 9b1c 653d 9c00 91be
00000180: 93aa 6e3e cd4b b2be 43cd 81bd cc80 643e
00000190: 011e 133e fdad 933d e93d 423c a661 e9bd
000001a0: 75fc a8be f18f 893e c373 bcbc 564b ee3d
000001b0: de39 fd3e c208 98be c707 f93e ff5b c83e
000001c0: 82fd bb3c 40cf 98bd f052 99bd 51ad 50be
000001d0: ceee 82bc 6c84 d23c 84df db3d 5c09 7bbc
000001e0: c988 a53e 8719 86be 2b63 113f 9152 ca3e
000001f0: e936 cebe b311 a4bd a68e df3c d231 173e
00000200: 39c8 413e 53b4 113e 2810 0d3f b0db dfbd
00000210: b5d6 a13e 741f 053f 3545 173e 10ec c5bd
00000220: 9dc0 003e d493 063d a678 053f 480d 5c3e
00000230: 980f 34be 7abb 3a3e 1293 023d c3e0 d3be
00000240: bf7f ae3e 7a6e de3e 1366 883d 59bd 763d
00000250: 315b 963e 5db6 713e deac abbc 72e9 3fbe
00000260: a9ed ea3e 05b6 1bbe a94a ebbc 8d3e 4dbe
00000270: a714 283e 994f 64be a2ff 2fbe 0444 8c3d
00000280: 561d 89be b7f4 3abe c10e c7bd cc2a 323e
00000290: 9677 b4be 50c8 27be 296a 13be e864 1a3f
000002a0: e369 c33c 8b10 323e aee6 1abe 563d 7fbe
000002b0: 30bb 093e b2c1 3a3d cce2 173e 55ec 1a3e
000002c0: 6126 b33d 4e23 693e c8ab aa3e cf20 913e
000002d0: b067 243d 2e50 dd3d a3d3 b23e 7c89 ef3a
000002e0: 3c6a 54bd 4e70 803d a783 023d 7491 9f3d
000002f0: 2e90 8a3e efba 3e3e 1ab3 ca3d cfb3 71be
00000300: d419 4cbd 5d70 c13c e12b 073d d509 86bc
00000310: f356 993c 7e22 9bbc 8b99 d2bc 31ba 133c
00000320: cb22 fd3c a8e9 543a 12ab abbc f000 cebc
00000330: 1325 843d e4e2 b33c 3f0a 86bc 7858 b93a
00000340: 9dc4 ca3c 9e75 293d 547d 0ebb 607e 79bc
00000350: 071e 3b3d d552 27bc a2a7 17bd 148b c83b
00000360: 3af9 343b c9a1 7f3d f249 71bb 6761 4f3b
00000370: 5fc9 893c bd30 8abc e24c 243d a969 923b
00000380: 6e5c 313d 44f1 033e cda2 09be 7f7f 613d
00000390: 3e30 1bbc 5e7d 2c3e cda3 be3e a526 333d
000003a0: 3924 8b3e a32d 96be dd49 703e 0c17 cd3d
000003b0: d788 96be 673e f03d a6e7 fdbd 6f62 153f
000003c0: f273 bcbe b6f5 273d de2b 47be cb05 353e
000003d0: 5c39 bb3e eb14 4b3e 7c12 edbd 85ca 953d
000003e0: 2e74 0f3d 59be 053d 1c66 37be 8ad2 aa3e
000003f0: 53e6 02be aa43 a93e 2ccb e4bb fe93 b13c
0.6032272 -0.053729404 0.04107426 0.39007652 0.088414975 0.34623656 0.4170622 -0.22884512
-0.09788598 0.26641715 0.36476234 0.69261277 -0.2905645 0.065867454 0.31376818 0.0038374888
0.11192084 -0.13387077 0.06287435 0.21602479 -0.43639165 0.19844736 -0.07045372 0.22030258
-0.024495663 0.020633817 -0.0036865065 -0.1965108 -0.073074855 0.19160818 0.045075368 0.35201842
0.22002567 0.051040385 -0.21042484 0.04864003 0.033100948 -0.12842005 0.2948108 -0.11394986
-0.03366595 0.0030589977 0.05304462 0.24980886 0.027127458 0.10438872 -0.04333148 0.3672469
-0.25578654 -0.35318935 -0.22901523 0.26163304 -0.012477395 0.27346674 -0.23305032 0.3148508
-0.08538064 0.5023307 0.092924766 0.07730832 -0.4178996 0.20724647 -0.019368729 0.18180029
-0.00586209 -0.2549615 -0.3999547 -0.07383864 -0.2763051 0.06780296 -0.010477394 0.42274988
-0.21148132 0.44580507 0.121419415 0.102858536 0.19446799 -0.2163229 0.5009883 0.6161169
-0.075986445 -0.22797222 0.059601516 0.39120823 0.070089884 0.39963058 0.42411977 0.25665334
0.1478885 0.015330597 0.40741894 0.53829145 -0.1322592 0.22162612 0.055935483 -0.28320777
0.23307256 -0.34823456 -0.06337979 0.22314757 0.14366914 0.0721092 0.011855581 -0.11395578
-0.3300511 0.2686763 -0.023004418 0.11635463 0.49458212 -0.29694182 0.48638746 0.39132687
0.02294803 -0.07461405 -0.07486522 -0.20378615 -0.015983012 0.02569791 0.107359916 -0.015322056
0.3233092 -0.2619135 0.56791943 0.39516118 -0.40276268 -0.08011188 0.0272897 0.14765099
0.18924035 0.14228944 0.5510278 -0.10930574 0.3160912 0.5200112 0.14772494 -0.09664166
0.12573476 0.032855824 0.5213722 0.21489441 -0.17584074 0.18235579 0.03187854 -0.41382417
0.34081838 0.43443662 0.06660094 0.06023917 0.2936645 0.23604722 -0.020956453 -0.18741396
0.45884445 -0.15206154 -0.028722124 -0.20043392 0.16414128 -0.22295989 -0.1718736 0.068489105
-0.26780194 -0.18257414 -0.09719611 0.17399138 -0.35247487 -0.16385007 -0.14395966 0.6031022
0.023854202 0.17389123 -0.1512706 -0.24925742 0.13450313 0.04559488 0.1483261 0.15129216
0.087475546 0.22767374 0.33334184 0.28345343 0.040137947 0.10806309 0.3492709 0.0018275226
-0.051859125 0.062714204 0.031863835 0.07791415 0.27063125 0.18625997 0.09897442 -0.23603748
-0.04982932 0.02361315 0.03300083 -0.01636211 0.018718218 -0.018937346 -0.02570798 0.009016559
0.03090038 0.00081219757 -0.020955596 -0.025146931 0.06452384 0.021958776 -0.016362308 0.0014140746
0.024751956 0.041371934 -0.0021742182 -0.015227884 0.045682933 -0.01021262 -0.0370251 0.006120095
0.002761437 0.06241015 -0.0036817756 0.003164375 0.016819654 -0.016868943 0.040112384 0.004468162
0.04330104 0.12885004 -0.1344101 0.05505323 -0.009471951 0.16844699 0.37234345 0.043738026
0.27176073 -0.29331693 0.23465677 0.100141615 -0.29401276 0.11730652 -0.12397699 0.5835332
-0.3680721 0.041005813 -0.19450328 0.17677991 0.365672 0.19832198 -0.11575791 0.07314018
0.035022907 0.032652233 -0.17910045 0.33363754 -0.12783174 0.33059436 -0.006982228 0.021677013

layer2.bias f4 [32]
00000000: 21dc 37bb 04b8 cd3a e439 683e b69a 183d
00000010: 70dd c93d 4ec2 2a3e 52dd 583c 6fca 3a3d
00000020: 95fe 5f3e 4842 33ba ac48 ee3d e28b 9e3e
00000030: e83c 413e 9d7b 933d 2ef1 373e a5d6 1e3e
00000040: 4333 a83e 0cc8 56bd a961 a13e 9252 1c3e
00000050: 9b73 9db9 7815 973e 85d1 babc 7778 ad3e
00000060: b66d 8c3e f46d 453e 4752 a03e 3f4d 213e
00000070: f744 f83d edea 8b3e 5be5 633e dba4 0e3c
-0.002805479 0.00156951 0.22678334 0.03725692 0.09856689 0.16675684 0.013236361 0.045603212
0.21874459 -0.0006838185 0.11634955 0.30966097 0.1887089 0.07201312 0.17963096 0.15511568
0.3285161 -0.052436873 0.3151982 0.15265873 -0.00030031506 0.29508567 -0.022804985 0.3388097
0.27427453 0.19280225 0.31312773 0.15752123 0.12122529 0.27327672 0.22255461 0.008706297

layer3.weight f4 [8, 32]
00000000: 90f9 6ebe 4096 be3d 00c8 953e 2678 f1be
00000010: 807d 08bf 9c47 cf3e 31d4 54bc 26cd 943e
00000020: 1858 1f3e b8f6 b42b dc0a 2bbe 99bf 77bb
00000030: 34be d93e be1a 253e d31e f8be 9e05 da3e
00000040: 7eb1 bf3e 8654 a1be fa01 9d3e 276b c83e
00000050: 6a18 652b fd69 853e 68f2 acbe 2363 b93e
00000060: 9cd5 cabe 4c59 af3e ad05 e4be f05a 9b3e
00000070: f1ee eabe 5f72 4cbe b0de 96be 78db bcbe
00000080: c80f 683d e8ea 46be 125b 92be ebb9 65be
00000090: 294c cb3e f3a2 50be 2238 b0bc 7c2d a33e
000000a0: 188a e9be 5945 102c 99ca 953e 09b5 debe
000000b0: cd86 b2be e37d 6ebe 42f1 c13e 53f7 5bbe
000000c0: f86b 0fbf f17b 483e 9b13 25bf 9f5a 01bf
000000d0: 5f78 39b7 decc a23e 2033 963e e031 9c3d
000000e0: 7a0e 063e 7143 bcbe 7e14 233e 4b05 8e3e
000000f0: 6615 ae3e 4a8b 9c3e ec1d e3be df28 c03e
00000100: a328 9f3e 80e7 06be a3fe f23d c0c8 c8be
00000110: c2bb 0a3e e512 f83d e3a5 44bc 6535 acbe
00000120: 2a17 a93e d0f7 702c a2eb 5a3e 3790 823e
00000130: eecc 403e 81c8 883e 5b59 a5be 2b53 9d3e
00000140: 3263 913e 25f5 c03e 806f 5b3e f581 49bd
00000150: 169a 2c2b 0474 3e3e 2c1b 03bf a4bc 9e3e
00000160: 6804 b53e 0f34 0bbf 7ebb 9f3e 3022 13bf
00000170: c204 3a3b 73b1 9fbe 2a30 a73d 34ac 963e
00000180: 280f 0cbf 6b38 43be 0cd3 06bf 3b97 89be
00000190: 1c1d 143e 3c42 7d3c a0b3 813d 0f8e bcbe
000001a0: 2996 4e3e fb18 e2ac b3a0 90be 123f ed3e
000001b0: 465b cebe 83b8 28bf 16bf 503e 9918 9bbe
000001c0: 36e0 893d e320 663d 94dd b93e 1edb aebe
000001d0: dd58 882d 2f5a 983e 68be 103e d426 963e
000001e0: 9214 f23e 3ed2 a2be 9dda 9c3e 2732 bc3e
000001f0: 870d 0e3e aa2c 523e 1024 a03e 9866 10be
00000200: 97cb a73e 056d dc3e 3aea fdbd 206d e3ba
00000210: fd9f 47be 6c70 03bf e1de 6bbc 5845 a13e
00000220: 873f ecbe 65d7 d52e a214 62be ab48 50bd
00000230: e956 6e3e 519b cf3d 785b ba3e 91a0 b63e
00000240: 55a4 7bbc de4f 05bf 2b85 173e 6632 b9be
00000250: b16b 342e b2e4 0a3e 7310 a03e 9dd9 8c3e
00000260: f26c bd3e aa99 d03e ade4 64be 5e87 13be
00000270: 5705 ddbe b4ae a73e 25da 09bf 7291 ed3d
00000280: 1ed4 c8be b597 d7be febb b83e f141 a13e
00000290: 172d 00bf 6e7f ad3e f271 00bc 57c7 9bbd
000002a0: ba82 09be f704 b4ad db56 003e 485e f83e
000002b0: 6bab e4bd c8ef ba3e 0bd5 eabe 4071 a3be
000002c0: cc2d 47be 7cd4 a13c 2759 7a3e d2fd a03e
000002d0: bc39 02aa 141c 3b3e c23b b9be 4d82 09bf
000002e0: 9a19 bcbd 184a f33d 8423 c83e 7b1e 17bf
000002f0: e5bc bc3e 8c02 eebe a272 053f 644c c5be
00000300: a069 4d3e 0ce9 a23e b6c9 b53e 4db0 d73e
00000310: cad7 003e f2aa b0be 571e 1cbc 4593 893e
00000320: a4ef 30be 70f8 2535 61bf 9a3e ad8e e5be
00000330: 4e75 51bc 5777 c83e 50a8 3c3d 4b17 38bd
00000340: 6b99 fabd 3f38 9abe 3fc8 00bf 7186 dc3e
00000350: 78fa 74ad cd72 f1be a917 0d3e aa0f 48be
00000360: 6a2a a5be 3849 e0bd 4639 9d3e 9a8a b9be
00000370: 5acc b23e c1f4 14be bb48 b6be 6432 ad3e
00000380: 0086 923e cfb9 e6be b712 07be e311 ab3e
00000390: 8860 8e3e 195c 60bd a874 a6bc 5b77 18bf
000003a0: 47c4 eabe 611b f0ac 66e7 903e 7aa8 94bd
000003b0: 60d3 cd3e e5b3 34be 2f42 163e f78d c73e
000003c0: e3f5 63bc cb99 ba3e bc63 b43d 926f ef3d
000003d0: 9e3e c92c 3c81 113e 95a6 0d3e b4bc babe
000003e0: 1213 1ebf b6ff 703e 8730 0bbf f1af 853e
000003f0: 848d 823e 124f 9c3e eb1e 8b3e 4c1b 37be
-0.23337388 0.09306002 0.2925415 -0.47161978 -0.533165 0.4048432 -0.0129900435 0.29062766
0.15560949 1.2858247e-12 -0.16703361 -0.003780341 0.42527926 0.16123483 -0.48461017 0.4258241
0.37440103 -0.315098 0.3066557 0.3914425 8.1391025e-13 0.26057425 -0.3377869 0.36208448
-0.39616096 0.34247816 -0.4453558 0.30342817 -0.45885423 -0.19965504 -0.29466772 -0.3688619
0.056655675 -0.19425547 -0.28585106 -0.22434203 0.39706543 -0.2037466 -0.021511141 0.3187064
-0.4561317 2.0502126e-12 0.29256132 -0.43497494 -0.3486847 -0.2329021 0.37879378 -0.21481065
-0.5602412 0.1957853 -0.6448304 -0.505289 -1.1054885e-05 0.31796926 0.2933588 0.076267004
0.1309146 -0.36770204 0.15925786 0.27738413 0.340007 0.3057502 -0.44358766 0.37531182
0.3108569 -0.13174248 0.11864974 -0.3921566 0.13548186 0.12112979 -0.012002441 -0.33634487
0.33025485 3.4243615e-12 0.2137895 0.25500652 0.18828174 0.26715472 -0.32294735 0.30727515
0.28395993 0.3768703 0.21429253 -0.049196202 6.132051e-13 0.18598944 -0.51213336 0.31003296
0.35354924 -0.5437631 0.31197733 -0.5747404 0.0028384184 -0.3119007 0.081634834 0.29428256
-0.54710627 -0.1906449 -0.5266578 -0.26873192 0.1446423 0.015457686 0.06333089 -0.36827132
0.20174469 -6.4260797e-12 -0.28247604 0.4633718 -0.4030401 -0.6590654 0.20385394 -0.30292204
0.06732218 0.056183707 0.36301863 -0.34151548 1.5500873e-11 0.29756305 0.14135134 0.29326499
0.4728132 -0.31801027 0.3063554 0.36757013 0.13872348 0.2052485 0.31277514 -0.14101636
0.32772514 0.43051925 -0.12398191 -0.0017351247 -0.19494624 -0.5134342 -0.0143964 0.31498218
-0.46142218 9.72438e-11 -0.22078183 -0.05085055 0.23275341 0.10137046 0.3639791 0.35669377
-0.015359004 -0.5207499 0.14796893 -0.36171263 4.102291e-11 0.13563803 0.3126255 0.27509776
0.3699718 0.40742236 -0.22352858 -0.14407107 -0.43168136 0.32750475 -0.5384849 0.11600007
-0.39224333 -0.4210793 0.36080927 0.31495622 -0.500688 0.33886284 -0.007839667 -0.076063804
-0.13428774 -2.0465836e-11 0.12533133 0.4850943 -0.11165508 0.36511064 -0.45865664 -0.3192234
-0.19451064 0.01975464 0.24448071 0.3144365 -1.156635e-13 0.1827243 -0.36178404 -0.5371445
-0.091845706 0.11879367 0.39089596 -0.59030885 0.36862865 -0.46486318 0.5212804 -0.38534844
0.20059824 0.31818426 0.35505456 0.42126694 0.12582317 -0.3450542 -0.009528718 0.2687017
-0.17278916 6.1828814e-07 0.30224136 -0.44835415 -0.012784315 0.3915355 0.046058953 -0.04494409
-0.122362934 -0.30121037 -0.5030555 0.4307132 -1.39254094e-11 -0.471579 0.13778557 -0.19537225
-0.32258922 -0.10951465 0.3070776 -0.36238557 0.34921533 -0.14546491 -0.35602364 0.33827507
0.2861786 -0.45063636 -0.13190733 0.33412084 0.27808022 -0.05477533 -0.020319298 -0.5955712
-0.45852873 -6.82425e-12 0.28301543 -0.07258697 0.4020033 -0.1764675 0.14673685 0.38975498
-0.013913604 0.3644546 0.08808085 0.11691202 5.7197155e-12 0.14209455 0.13833077 -0.36472094
-0.6174785 0.23535046 -0.5437092 0.26110795 0.25498593 0.30529076 0.27172026 -0.17881507

layer3.bias f4 [8]
00000000: 18ad c03b 396a 923e 06ef 133e 68d4 af3e
00000010: 9941 eb3d aae4 7b3e e611 733d 9382 723d
0.0058800094 0.28596666 0.14446649 0.3434174 0.11487121 0.24598947 0.05934324 0.059206557
