model.pth (torch, 7156 bytes, 6 tensors)

layer1.weight f4 [16, 41]
0	0xbdb63d16	-0.0889837
1	0xbe480eae	-0.1953685
2	0xbeb2000f	-0.3476567
3	0xbdadbfa9	-0.08483822
4	0xbe8392b6	-0.2569787
5	0x3ed08fa4	0.4073459
6	0x3eb0bcdc	0.34519088
7	0x3f0bf266	0.54666746
8	0xbee83d4c	-0.45359266
9	0xbed7a884	-0.42120755
10	0x3edafeaf	0.42772433
11	0x3d68ea43	0.056864034
12	0x3ef6421e	0.48097318
13	0xbdb187e7	-0.086684994
14	0x3e68d440	0.22737217
15	0xbeace85c	-0.33771026
16	0xbe4130d9	-0.1886629
17	0xbee9af74	-0.45641673
18	0xbebeabe1	-0.37240508
19	0x3ea16587	0.31522772
20	0xbe989b5e	-0.29806036
21	0x3e85b289	0.26112774
22	0x3e90c15f	0.2827253
23	0x3d8ee3cd	0.06977043
24	0xbe1d481e	-0.15359542
25	0x3e89563e	0.2682361
26	0xbe421bbe	-0.18955895
27	0x3e975bb1	0.29562142
28	0x3ecdbf2e	0.4018492
29	0xbc278bc2	-0.010226192
30	0x3eb195eb	0.3468469
31	0xbeba7747	-0.36419126
32	0xbe3b0cae	-0.18266556
33	0x3e7ba47d	0.24574466
34	0x3f2be8d8	0.67152166
35	0xbe2d1dc9	-0.16905893
36	0x3e349f1d	0.17638822
37	0xbe75e858	-0.24014413
38	0x3d8343f8	0.064094484
39	0x3e7984ae	0.2436702
40	0x3e586021	0.2113042
41	0x3d602924	0.054726735
42	0x3eb5986c	0.3546785
43	0xbd05cbc9	-0.032665048
44	0x3dcc2105	0.099672355
45	0x3d88257d	0.06647775
46	0x3eb817ad	0.35955563
47	0x3cc41da2	0.023939911
48	0x3f10c26a	0.5654665
49	0xbee19c12	-0.44064385
50	0xbea7c26f	-0.3276553
51	0x3e837f5f	0.25683114
52	0x3d8fc5cf	0.07020151
53	0x3e232dc5	0.15935428
54	0x3e90822b	0.2822431
55	0x3e9a51dd	0.30140582
56	0xbebab276	-0.3646428
57	0x3d825b6f	0.06365096
58	0xbe8de7b4	-0.27715838
59	0xbeaa30af	-0.33240268
60	0x3e73116a	0.23737112
61	0x3e072a85	0.13199814
62	0x3e4b4cca	0.19853511
63	0x3ea19260	0.31556988
64	0x3bc2d83e	0.0059461882
65	0x3e98ad01	0.29819492
66	0x3d306132	0.043061443
67	0x3e1c1e00	0.15245819
68	0x3ed51263	0.4161559
69	0x3ec00764	0.3750564
70	0x3e8a4881	0.2700844
71	0xbd2965f2	-0.04135699
72	0x3ecab89c	0.3959397
73	0x3e49567c	0.19661897
74	0xbc215788	-0.009847529
75	0x3eebb2bc	0.460348
76	0xbd6b3abf	-0.05742907
77	0x3eaf9a6e	0.34297508
78	0xbec2d0c7	-0.3804991
79	0xbe7251ed	-0.23664065
80	0xbdb16b2c	-0.086630195
81	0x3e1c6b56	0.1527532
82	0x3e11a968	0.1422478
83	0xbe0d8e7c	-0.13823885
84	0x3e86a865	0.2630035
85	0xbda7b2e2	-0.08188416
86	0xbeb97e41	-0.36229137
87	0x3f0593de	0.5217875
88	0x3e79caf6	0.2439383
89	0x3e7ffa45	0.24997814
90	0xbeaf6a7c	-0.3426093
91	0xbf026e10	-0.5094919
92	0x3ec8bb6b	0.3920549
93	0x3e35d1c4	0.177558
94	0x3ec045be	0.3755321
95	0xbd1b9bf7	-0.037990537
96	0x3ecfa7c7	0.4055769
97	0xbe49c9f5	-0.19705947
98	0xbe380eb3	-0.17974357
99	0xbeb12877	-0.34601185
100	0xbd65d30c	-0.056109473
101	0x3efe83d6	0.49709958
102	0xbec3b52f	-0.3822417
103	0x3eb794f4	0.3585583
104	0x3e7862db	0.2425646
105	0x3e676d49	0.22600283
106	0xbda10b44	-0.07863477
107	0x3e39cc5a	0.1814436
108	0xbd18afec	-0.037277147
109	0x3ee65071	0.44983247
110	0x3d3df5a5	0.046376843
111	0xbe353086	-0.17694291
112	0x3e10b7ef	0.14132665
113	0xbf0092df	-0.5022411
114	0xbea2d6fa	-0.3180464
115	0x3ed174bb	0.4090937
116	0x3ef683ef	0.48147532
117	0x3e4a193a	0.19736186
118	0x3e11b0bd	0.14227577
119	0xbec82c39	-0.3909624
120	0x3f1a0336	0.6016115
121	0x3ecf7043	0.40515336
122	0x3e5e59ff	0.21714018
123	0x3eade79b	0.33965763
124	0x3e880592	0.2656675
125	0x3ec216ed	0.37908116
126	0x3eaeed8f	0.34165618
127	0x3e4d8ae2	0.20072511
128	0xbeb1f352	-0.3475595
129	0x3cb828f3	0.022480464
130	0xbd8dd3bf	-0.06925153
131	0x3d637ec2	0.055540808
132	0x3e5d6ca3	0.21623473
133	0x3ccfa548	0.025347367
134	0xbe1ec461	-0.155046
135	0xbea3036e	-0.31838554
136	0x3e6ea2ea	0.23304334
137	0xbe3a720d	-0.1820757
138	0xbe3c2dda	-0.18376866
139	0x3e9fc9b8	0.31208587
140	0xbe7dc993	-0.24783926
141	0xbe838ffa	-0.25695783
142	0x3e860d4e	0.26182026
143	0x3eb16994	0.34650862
144	0x3e1c46fc	0.15261453
145	0x3eaccfd3	0.33752307
146	0x3ec3d721	0.38250068
147	0x3e4c680f	0.1996157
148	0x3e5478d0	0.20749211
149	0x3e4fff4e	0.20312235
150	0xbe85a108	-0.2609942
151	0xbe48d9fb	-0.19614403
152	0x3d1d3b57	0.03838667
153	0x3e2b1c93	0.16710119
154	0x3ee66df7	0.45005772
155	0x3ded220d	0.1157876
156	0x3eb57937	0.35444042
157	0xbedec41f	-0.43509004
158	0x3eb4001b	0.3515633
159	0xbd01d6d2	-0.03169901
160	0xbeba6149	-0.36402348
161	0x3f0e5d0c	0.5561073
162	0x3d2f7fbe	0.042846434
163	0x3ee6079a	0.44927675
164	0x3d65d46e	0.05611079
165	0x3e7e04d2	0.24806526
166	0xbe09ddb3	-0.13463478
167	0x3e5b95a9	0.2144381
168	0x3e19fd51	0.15038039
169	0xbed26a2d	-0.4109663
170	0x3e4af0bb	0.19818394
171	0xbe1514fc	-0.14558786
172	0x3ee8d17d	0.45472327
173	0x3eb1732b	0.3465818
174	0x3e172890	0.14761567
175	0xbe295faf	-0.16540407
176	0xbeb9e151	-0.36304715
177	0x3edbc0dd	0.4292058
178	0x3e8d6c49	0.27621678
179	0xbe70835d	-0.23487611
180	0x3e1c50a7	0.15265141
181	0xbd89d0d3	-0.06729283
182	0xbe54c501	-0.20778276
183	0x3c5a4512	0.013322132
184	0x3ec2022a	0.37892276
185	0x3e8d2d95	0.2757384
186	0x3f07fcd0	0.53120136
187	0x3da01644	0.07816747
188	0x3e6344f7	0.22194277
189	0xbcf22631	-0.029559227
190	0x3e917be3	0.2841483
191	0xbe7ba211	-0.24573542
192	0xbe62afb2	-0.22137335
193	0x3e4c6482	0.19960216
194	0x3e6bdf05	0.23034294
195	0x3f02c89d	0.5108736
196	0x3e478acb	0.19486539
197	0xbb904af5	-0.004403467
198	0xbe31fba2	-0.17381147
199	0x3ed542cb	0.41652521
200	0xbe358efa	-0.17730322
201	0xbe9e6d46	-0.30942744
202	0xbdbe9ab1	-0.09306849
203	0x3e3802c0	0.17969799
204	0x3ebb4a22	0.36579996
205	0x3c8ca252	0.017167244
206	0xbd560bde	-0.05225741
207	0xbeb2ff65	-0.34960476
208	0xbdf86fdb	-0.1213071
209	0xbe3f61bd	-0.18689628
210	0xbe0d6521	-0.13808109
211	0x3e84e8af	0.25958773
212	0xbe3f387e	-0.18673894
213	0x3ecf86c4	0.40532506
214	0x3ef7ea63	0.4842101
215	0xbd84dcb5	-0.06487409
216	0x3e6dcfca	0.23223796
217	0xbe17682c	-0.14785832
218	0xbdcb7103	-0.09933665
219	0xbd90dd0e	-0.07073413
220	0xbe1d9049	-0.15387072
221	0xbca835ee	-0.020533528
222	0x3ec9e70e	0.39434093
223	0x3e64cbb6	0.22343335
224	0xbdba67a2	-0.09101798
225	0x3d76384a	0.060112275
226	0x3e1ce512	0.15321758
227	0xbc3aa419	-0.011391663
228	0xbe1626ce	-0.1466324
229	0xbcc352e8	-0.023843244
230	0x3dc044d2	0.093881264
231	0xbe190466	-0.14943084
232	0xbe8a775e	-0.27044195
233	0xbdcfbfc0	-0.10143995
234	0x3d3e9c58	0.04653582
235	0x3ec024d4	0.37528098
236	0xbec9087d	-0.3926429
237	0xbe0a0329	-0.13477768
238	0x3e0ccc03	0.137497
239	0xbd9afffe	-0.07568358
240	0x3da04144	0.078249484
241	0xbd162269	-0.03665391
242	0xbcd7fb30	-0.026364893
243	0xbe8967d5	-0.2683703
244	0xbe4f663b	-0.20253842
245	0x3e82742f	0.25479266
246	0x3edfd6fa	0.43718702
247	0x3ea6a1ea	0.32545406
248	0x3ea7fc2c	0.3280958
249	0x3e122458	0.14271677
250	0x3e3bf0cc	0.18353575
251	0xbdc34ff8	-0.09536737
252	0x3dbcffd4	0.09228483
253	0xbe1a9764	-0.15096813
254	0xbe882e58	-0.26597857
255	0xbdd187ef	-0.102310054

layer1.bias f4 [16]
0	0x3eebcbba	0.4605387
1	0x3ed392fd	0.4132308
2	0x3f009b62	0.50237095
3	0x3ed50d72	0.4161182
4	0x3ed2a6c7	0.41142866
5	0x3e0cf00b	0.13763444
6	0x3d504b8d	0.0508533
7	0x3e276c8b	0.1635
8	0x3f01bf6a	0.506827
9	0x3d8154e6	0.06315021
10	0x3ee9aa0e	0.45637554
11	0x3f0f479a	0.5596863
12	0x3ed2fda7	0.41209146
13	0x3eb3543a	0.35025197
14	0x3ec5be19	0.38621596
15	0x3e205e5d	0.15660997

layer2.weight f4 [16, 16]
0	0xbe7807a2	-0.24221662
1	0x3e9b7981	0.30366138
2	0xbc062973	-0.008188593
3	0x3f17f366	0.5935577
4	0x3e9266a1	0.28593925
5	0xbeb6ede7	-0.3572838
6	0x3e84271c	0.25811088
7	0x3cb71328	0.022348002
8	0xbecc3880	-0.39886856
9	0x3e4b9528	0.19881117
10	0x3f267b90	0.6503229
11	0x3e8f3e1b	0.2797707
12	0xbdd4f6a2	-0.10398604
13	0xbf2e7cd9	-0.6815925
14	0x3eb27133	0.3485199
15	0xbea963cc	-0.3308395
16	0xbf26d772	-0.65172493
17	0xbe83af08	-0.25719476
18	0xbed5994e	-0.41718525
19	0x3ee79884	0.45233548
20	0x3ef9c11b	0.4878014
21	0x3f2e62c2	0.6811944
22	0x3f596ac7	0.84928554
23	0x3ecd1189	0.4005244
24	0x3ee0bf4e	0.43895954
25	0xbf114217	-0.5674147
26	0x3d83b355	0.06430689
27	0x3ebfaa69	0.374347
28	0x3f3e8cbc	0.74433494
29	0x3f0343d8	0.51275396
30	0x3f2c3c2b	0.6727931
31	0x3f528217	0.8222975
32	0x3e269db6	0.162711
33	0x3e5edceb	0.21763961
34	0x3e8d8ea4	0.2764789
35	0x3f195255	0.59891254
36	0x3f20b7f6	0.627807
37	0x3de54839	0.11195416
38	0x3d8ccb86	0.068747565
39	0x3e8a92f2	0.27065235
40	0xbef705c6	-0.48246592
41	0xbeb6030c	-0.355492
42	0x3e796cf9	0.24357976
43	0xbefa7fb7	-0.48925564
44	0x3e66a90b	0.22525422
45	0xbe6ba6f8	-0.23012912
46	0x3ece4d7f	0.402935
47	0xbee789fe	-0.45222467
48	0xbdea7f34	-0.11450043
49	0xbf2d6fa9	-0.67748505
50	0xbd5b1f82	-0.053496845
51	0x3f07a8f7	0.52992195
52	0x3f1618a1	0.5863133
53	0x3e442adf	0.19156979
54	0xbf07223e	-0.52786624
55	0xbec4805d	-0.38379183
56	0x3e8b71b3	0.27235183
57	0xbe44acd5	-0.19206555
58	0xbeb62584	-0.35575497
59	0xbefd6418	-0.49490428
60	0x3ea1a906	0.31574267
61	0x3ed6f9a2	0.4198733
62	0xbe1889b7	-0.14896284
63	0xbf17efe4	-0.5935042
64	0x3d8b94a6	0.06815462
65	0x3e4db176	0.20087227
66	0xbdece4c5	-0.11567072
67	0xbe55c44e	-0.20875666
68	0x3eb59877	0.35467884
69	0xbdbc7eb5	-0.09203855
70	0x3ef18aa3	0.47176084
71	0xbeae8597	-0.34086296
72	0xbe8d49e3	-0.27595434
73	0xbed5f891	-0.41791204
74	0x3e4e2501	0.20131303
75	0x3dded2cf	0.10880052
76	0xbeb996a0	-0.3624773
77	0x3e9b4958	0.30329394
78	0x3ec003ca	0.3750289
79	0x3ed49233	0.4151779
80	0xbefdd3ab	-0.49575552
81	0xbe45f9e8	-0.19333613
82	0xbefbb62d	-0.49162427
83	0x3ea64fde	0.3248281
84	0x3f0331ca	0.5124785
85	0x3f3aa393	0.72905844
86	0x3e9cd7ef	0.30633494
87	0xbe896c10	-0.26840258
88	0x3f0e58f3	0.55604476
89	0xbf07d1b3	-0.5305435
90	0x3e125d85	0.14293487
91	0x3f25783e	0.646366
92	0x3f0b5462	0.5442563
93	0x3f278bff	0.6544799
94	0x3f1cb7c2	0.6121789
95	0x3f0e89ac	0.5567882
96	0x3f27409d	0.6533297
97	0x3f038ec4	0.5138972
98	0x3e4c4936	0.19949803
99	0x3f0d00ef	0.5507955
100	0x3e727221	0.23676349
101	0x3e9de15c	0.30835998
102	0xbf236d88	-0.63839006
103	0x3e19affa	0.15008536
104	0xbe9d2be5	-0.3069755
105	0xbe41dea3	-0.18932585
106	0xbf080fc4	-0.53149056
107	0xbea9c889	-0.3316081
108	0x3ea8b79e	0.3295259
109	0x3e358f70	0.17730498
110	0x3e22d9fc	0.15903467
111	0xbe2b17fc	-0.16708368
112	0x3de68e65	0.11257628
113	0x3f2a1df7	0.6645197
114	0x3ef1f17e	0.47254556
115	0x3ecbd965	0.39814296
116	0x3e42a437	0.19007955
117	0xbef5264e	-0.47880787
118	0x3e7b5689	0.2454473
119	0x3e98d899	0.2985275
120	0x3e44ee05	0.19231422
121	0x3f0ac55e	0.5420741
122	0x3f36ecdf	0.71455187
123	0x3eb0c43c	0.34524715
124	0xbf1dad11	-0.61592203
125	0xbeed966d	-0.46403828
126	0xbdb700bd	-0.08935688
127	0xbf0ba5f5	-0.54550105
128	0x3f4091d8	0.7522254
129	0x3f2710b4	0.6525986
130	0x3e58f786	0.21188173
131	0xbe902723	-0.2815486
132	0x3dca1bb1	0.09868563
133	0x3b1cee0b	0.0023945596
134	0xbef454a3	-0.47720823
135	0xbefed3ed	-0.49771062
136	0x3f1508c4	0.582165
137	0x3f0b4b01	0.5441132
138	0x3f02f82e	0.5115994
139	0x3ee0fa19	0.4394081
140	0x3c9a2c14	0.018819846
141	0x3da460f0	0.08026302
142	0xbee8a81c	-0.45440757
143	0xbf3e1010	-0.7424326
144	0xbdcc65d4	-0.0998036
145	0x3f461b1c	0.77385116
146	0xbeae5226	-0.3404705
147	0x3e1d5bc1	0.15367033
148	0x3ea452f3	0.32094535
149	0xbeca2a08	-0.39485192
150	0x3e4d76af	0.20064805
151	0xbeb8324c	-0.35975873
152	0xbe311e3c	-0.1729669
153	0x3e92653a	0.28592855
154	0x3f42b80f	0.760621
155	0x3f14d6dc	0.5814035
156	0x3dd4e2be	0.1039481
157	0xbee2fc49	-0.44333103
158	0xbdf7ecbd	-0.12105701
159	0xbededff8	-0.4353025
160	0xbd0d787b	-0.034538727
161	0x3f0fe302	0.5620576
162	0xbf1baf8c	-0.6081474
163	0x3e350099	0.17676009
164	0x3e3945a9	0.1809298
165	0xbdb8f9d1	-0.09032024
166	0x3edcf422	0.4315501
167	0xbd969069	-0.07351763
168	0xbec9521f	-0.39320466
169	0xbdf4cec3	-0.11953499
170	0x3ea86fec	0.3289789
171	0x3ea49836	0.32147378
172	0x3e686375	0.2269419
173	0xbeefe5bc	-0.4685496
174	0x3ee085d4	0.43852103
175	0xbf046b61	-0.5172635
176	0xbe3ed62c	-0.18636388
177	0xbdcfbd28	-0.101435006
178	0xbd923ed0	-0.07140887
179	0x3d485c28	0.048916012
180	0xbd160ec2	-0.036635168
181	0x3e7ff852	0.2499707
182	0xbc4725e6	-0.012155032
183	0x3d64dd58	0.055875152
184	0xbe1290f0	-0.14313102
185	0xbdf1d7c0	-0.11808729
186	0x3dacd229	0.08438522
187	0xbbf75e9d	-0.0075491206
188	0xbe517da6	-0.20458087
189	0xbd89e81f	-0.06733727
190	0x3e650afc	0.22367471
191	0x3e286cea	0.16447797
192	0x3e8ea445	0.27859703
193	0x3e857d22	0.2607203
194	0x3ef6d0c1	0.48206142
195	0x3dda088f	0.10646164
196	0x3f24d0fd	0.6438139
197	0xbe06750a	-0.13130584
198	0xbf3c3d67	-0.7353119
199	0xbf071c4e	-0.52777565
200	0x3e3132e1	0.17304565
201	0xbebfbad4	-0.37447226
202	0xbf0fe85d	-0.56213933
203	0xbee3ec02	-0.44515997
204	0x3eb14b80	0.34627914
205	0x3f0bbb44	0.5458262
206	0xbebe2193	-0.3713499
207	0xbeb43be9	-0.35201958
208	0x3f1f173d	0.62144834
209	0x3ee8a4c6	0.45438212
210	0x3eafa4e4	0.3430549
211	0xbe86252c	-0.26200235
212	0xbee02320	-0.43776798
213	0x3d9ea569	0.07746393
214	0xbf26d3e8	-0.65167093
215	0xbeb34e74	-0.35020792
216	0x3f176dc8	0.5915189
217	0x3f1a1b0c	0.6019752
218	0x3efb75e5	0.49113384
219	0x3ec85adc	0.3913182
220	0xbd9228d6	-0.07136695
221	0xbf0144a7	-0.5049538
222	0xbe3770ab	-0.17914073
223	0xbec502db	-0.3847874
224	0xbc6be889	-0.014398702
225	0xbbb30535	-0.005463267
226	0xbe10420d	-0.14087696
227	0x3e125b72	0.14292696
228	0xbe98102e	-0.29699844
229	0xbdc962bc	-0.09833285
230	0x3e3030eb	0.1720616
231	0x3e04b3be	0.12959191
232	0x3dd03010	0.10165417
233	0xbcfb41fe	-0.030671116
234	0x3dcb4552	0.09925331
235	0xbe5b2144	-0.21399409
236	0xbe880bb3	-0.26571426
237	0x3d3e6a84	0.0464883
238	0xbd0dfb60	-0.034663558
239	0xbe20e932	-0.15713957
240	0x3f0b1cab	0.5434062
241	0x3d59577a	0.05306194
242	0x3f23d630	0.639987
243	0x3e1dbf84	0.15405089
244	0xbeb0d70b	-0.34539065
245	0x3eaba5b9	0.33524874
246	0xbe1cbd83	-0.15306668
247	0x3f300043	0.687504
248	0x3e27c20e	0.1638262
249	0x3de4e775	0.111769594
250	0xbd5268bb	-0.05136941
251	0x3ec5955f	0.38590524
252	0xbdc3e84d	-0.09565792
253	0x3f223912	0.6336833
254	0x3e8d6523	0.27616224
255	0x3f4cd8d0	0.8001833

layer2.bias f4 [16]
0	0x3e944db1	0.28965524
1	0x3ed8be19	0.42332533
2	0x3e9c87f1	0.30572465
3	0x3db00d10	0.085962415
4	0x3e52fd57	0.20604454
5	0x3e884f3a	0.26622945
6	0x3db60181	0.088870056
7	0x3e6db72a	0.23214403
8	0x3e6bc80c	0.2302553
9	0x3e30e884	0.17276198
10	0x3c64b824	0.013959918
11	0xbe791618	-0.24324834
12	0x3e980cca	0.29697257
13	0x3dd3b8f4	0.103380114
14	0xbdcd6fb0	-0.10031068
15	0x3ed68b96	0.4190337

layer3.weight f4 [7, 16]
0	0xbe59c296	-0.21265635
1	0x3e6c818c	0.23096293
2	0x3eeb99d9	0.46015814
3	0x3f085fe4	0.5327132
4	0xbf5811c3	-0.844021
5	0x3eaaa79a	0.33330995
6	0x3e1a60f8	0.15076053
7	0xbf5d779c	-0.86510634
8	0x3dd856ff	0.10563468
9	0xbee90501	-0.4551163
10	0xbe52dd99	-0.20592345
11	0x3cfe9c55	0.031080404
12	0x3f195edd	0.59910375
13	0xbd236b11	-0.03989703
14	0x3cac923b	0.021065822
15	0xbe2de428	-0.16981566
16	0x3e0a1d6a	0.13487783
17	0xbf21fb15	-0.63273746
18	0xbf33ab63	-0.7018339
19	0xbecdbef0	-0.40184736
20	0xbf1c1de3	-0.60983104
21	0xbe83648b	-0.25662646
22	0xbf5b202c	-0.85595965
23	0x3f33c7c7	0.7022671
24	0x3f37fc36	0.7186922
25	0x3e764861	0.24051048
26	0xbe6599b1	-0.2242191
27	0xbc974061	-0.018463315
28	0xbec186ef	-0.3779826
29	0x3f179be4	0.59222245
30	0xbe828585	-0.25492492
31	0x3e516305	0.20447929
32	0x3d2ba74b	0.04190759
33	0x3ce7f772	0.028316233
34	0xbe444420	-0.19166613
35	0x3e1cd658	0.1531614
36	0xbeb05469	-0.344394
37	0xbda51f42	-0.080626026
38	0xbe8044b9	-0.2505243
39	0xbd48d9b9	-0.04903576
40	0xbea7499f	-0.32673356
41	0x3e7bbc6c	0.24583596
42	0xbe8db430	-0.27676535
43	0xbe850034	-0.25976717
44	0x3d74c1c8	0.059755117
45	0x3e3b32f8	0.18281162
46	0x3db6712b	0.08908304
47	0xbccfe165	-0.025376031
48	0xbecddd67	-0.4020798
49	0x3f40e32a	0.75346625
50	0xbf2e80be	-0.68165195
51	0xbe9cbd19	-0.3061302
52	0x3e023c06	0.1271821
53	0x3f153b49	0.58293587
54	0xbf3a9c95	-0.72895175
55	0xbedee44d	-0.43533555
56	0xbd3f4d87	-0.046704795
57	0xbf550b96	-0.83220804
58	0xbeab65b7	-0.3347604
59	0x3e04f09a	0.12982407
60	0xbf215db5	-0.6303361
61	0xbf5df5b7	-0.86703056
62	0x3e59b34d	0.21259804
63	0x3f18250f	0.59431547
64	0x3f05c913	0.5225994
65	0x3e85b396	0.26113576
66	0x3eb2361d	0.3480691
67	0xbe9142a7	-0.28371164
68	0x3eab026f	0.33400294
69	0x3e8eb9a8	0.2787602
70	0xbf1ebbd2	-0.6200534
71	0x3e9d6633	0.30742034
72	0xbe8df45b	-0.2772549
73	0x3f2ee8bb	0.6832387
74	0x3f12b099	0.57300717
75	0xbe389720	-0.180264
76	0xbecc90a8	-0.39954114
77	0xbf27a1e9	-0.6548143
78	0xbdd73b9b	-0.10509416
79	0xbf3575b8	-0.7088275
80	0xbed04341	-0.4067631
81	0xbefd3635	-0.4945542
82	0x3df4c234	0.11951104
83	0xbe80165c	-0.2501706
84	0x3edf3e63	0.43602285
85	0xbeeea817	-0.46612617
86	0x3f14a484	0.5806353
87	0xbdf01ced	-0.11724267
88	0x3e98ae49	0.2982047
89	0xbf569b75	-0.8383096
90	0x3e8b56b8	0.272146
91	0xbe45dbaf	-0.19322084
92	0x3f2f3d6b	0.6845309
93	0xbd297863	-0.041374575
94	0xbe3d80e7	-0.18506204
95	0x3ef5e45d	0.4802579
96	0x3ed474a4	0.4149524
97	0x3d3417ef	0.043968137
98	0x3f069dc2	0.5258447
99	0xbefde6b7	-0.49590084
100	0xbee45392	-0.4459501
101	0xbebb66fa	-0.36602002
102	0x3e53bf06	0.20678338
103	0x3f0c3e36	0.54782426
104	0xbf4efca1	-0.8085423
105	0xbf1cc7bd	-0.61242276
106	0xbeabdbd3	-0.3356615
107	0xbce13af8	-0.027493939
108	0xbe2d23cf	-0.16908191
109	0xbecd9b31	-0.40157464
110	0xbe48084f	-0.1953442
111	0x3f0da199	0.55324703

layer3.bias f4 [7]
0	0x3e1d36fe	0.15353009
1	0x3eac2f71	0.33629945
2	0x3db56dcd	0.088588335
3	0x3ecc032c	0.3984617
4	0x3e409eac	0.18810529
5	0x3d97e2d9	0.07416315
6	0x3e689068	0.22711337
